[2025-06-10 15:53:49 eval_vit_small_16_224] (eval.py 134): INFO Creating model:vit_s_16/vit_small_16_224
[2025-06-10 15:53:50 eval_vit_small_16_224] (eval.py 141): INFO VisionTransformer(
  (patch_embed): PatchEmbed(
    (proj): Conv2d(3, 384, kernel_size=(16, 16), stride=(16, 16))
    (norm): Identity()
  )
  (pos_drop): Dropout(p=0.0, inplace=False)
  (blocks): ModuleList(
    (0-11): 12 x Block(
      (norm1): LayerNorm((384,), eps=1e-06, elementwise_affine=True)
      (attn): Attention(
        (pe_qk): Linear(in_features=384, out_features=768, bias=True)
        (qkv): Linear(in_features=384, out_features=1152, bias=True)
        (attn_drop): Dropout(p=0.0, inplace=False)
        (proj): Linear(in_features=384, out_features=384, bias=True)
        (proj_drop): Dropout(p=0.0, inplace=False)
      )
      (drop_path): Identity()
      (norm2): LayerNorm((384,), eps=1e-06, elementwise_affine=True)
      (mlp): Mlp(
        (fc1): Linear(in_features=384, out_features=1536, bias=True)
        (act): GELU(approximate='none')
        (fc2): Linear(in_features=1536, out_features=384, bias=True)
        (drop): Dropout(p=0.0, inplace=False)
      )
    )
  )
  (norm): LayerNorm((384,), eps=1e-06, elementwise_affine=True)
  (pre_logits): Identity()
  (head): Linear(in_features=384, out_features=1000, bias=True)
)
[2025-06-10 15:53:50 eval_vit_small_16_224] (eval.py 145): INFO SequentialPE(
  (pos_of_seqpe_embed): Embedding(4, 384)
  (token_of_seqpe_embed): Embedding(10, 384)
  (transformers): ModuleList(
    (0-1): 2 x SequentialPeBlock(
      (attn): SequentialPeAttention(
        (c_attn): Conv1D()
        (c_proj): Conv1D()
        (attn_dropout): Dropout(p=0.0, inplace=False)
        (resid_dropout): Dropout(p=0.1, inplace=False)
      )
      (layernorm_1): LayerNorm((384,), eps=1e-05, elementwise_affine=True)
      (layernorm_2): LayerNorm((384,), eps=1e-05, elementwise_affine=True)
      (mlp): SequentialPeMLP(
        (c_fc): Conv1D()
        (c_proj): Conv1D()
        (act): NewGELUActivation()
        (dropout): Dropout(p=0.1, inplace=False)
      )
    )
  )
  (layernorm): LayerNorm((384,), eps=1e-05, elementwise_affine=True)
  (out_proj): Linear(in_features=384, out_features=384, bias=True)
)
[2025-06-10 15:53:50 eval_vit_small_16_224] (eval.py 151): INFO Successfully init DDP for model
[2025-06-10 15:53:50 eval_vit_small_16_224] (eval.py 158): INFO Successfully init DDP for pe model
[2025-06-10 15:53:50 eval_vit_small_16_224] (eval.py 166): INFO number of params: 25523560
[2025-06-10 15:53:50 eval_vit_small_16_224] (utils.py 76): INFO ==============> Resuming form image_seqpe_ckpt/best_model.pth....................
[2025-06-10 15:53:51 eval_vit_small_16_224] (utils.py 88): INFO <All keys matched successfully>
[2025-06-10 15:53:51 eval_vit_small_16_224] (utils.py 91): INFO <All keys matched successfully>
[2025-06-10 16:56:58 eval_vit_small_16_224] (eval.py 134): INFO Creating model:vit_s_16/vit_small_16_224
[2025-06-10 16:56:58 eval_vit_small_16_224] (eval.py 141): INFO VisionTransformer(
  (patch_embed): PatchEmbed(
    (proj): Conv2d(3, 384, kernel_size=(16, 16), stride=(16, 16))
    (norm): Identity()
  )
  (pos_drop): Dropout(p=0.0, inplace=False)
  (blocks): ModuleList(
    (0-11): 12 x Block(
      (norm1): LayerNorm((384,), eps=1e-06, elementwise_affine=True)
      (attn): Attention(
        (pe_qk): Linear(in_features=384, out_features=768, bias=True)
        (qkv): Linear(in_features=384, out_features=1152, bias=True)
        (attn_drop): Dropout(p=0.0, inplace=False)
        (proj): Linear(in_features=384, out_features=384, bias=True)
        (proj_drop): Dropout(p=0.0, inplace=False)
      )
      (drop_path): Identity()
      (norm2): LayerNorm((384,), eps=1e-06, elementwise_affine=True)
      (mlp): Mlp(
        (fc1): Linear(in_features=384, out_features=1536, bias=True)
        (act): GELU(approximate='none')
        (fc2): Linear(in_features=1536, out_features=384, bias=True)
        (drop): Dropout(p=0.0, inplace=False)
      )
    )
  )
  (norm): LayerNorm((384,), eps=1e-06, elementwise_affine=True)
  (pre_logits): Identity()
  (head): Linear(in_features=384, out_features=1000, bias=True)
)
[2025-06-10 16:56:58 eval_vit_small_16_224] (eval.py 145): INFO SequentialPE(
  (pos_of_seqpe_embed): Embedding(4, 384)
  (token_of_seqpe_embed): Embedding(10, 384)
  (transformers): ModuleList(
    (0-1): 2 x SequentialPeBlock(
      (attn): SequentialPeAttention(
        (c_attn): Conv1D()
        (c_proj): Conv1D()
        (attn_dropout): Dropout(p=0.0, inplace=False)
        (resid_dropout): Dropout(p=0.1, inplace=False)
      )
      (layernorm_1): LayerNorm((384,), eps=1e-05, elementwise_affine=True)
      (layernorm_2): LayerNorm((384,), eps=1e-05, elementwise_affine=True)
      (mlp): SequentialPeMLP(
        (c_fc): Conv1D()
        (c_proj): Conv1D()
        (act): NewGELUActivation()
        (dropout): Dropout(p=0.1, inplace=False)
      )
    )
  )
  (layernorm): LayerNorm((384,), eps=1e-05, elementwise_affine=True)
  (out_proj): Linear(in_features=384, out_features=384, bias=True)
)
[2025-06-10 16:56:58 eval_vit_small_16_224] (eval.py 151): INFO Successfully init DDP for model
[2025-06-10 16:56:58 eval_vit_small_16_224] (eval.py 158): INFO Successfully init DDP for pe model
[2025-06-10 16:56:58 eval_vit_small_16_224] (eval.py 166): INFO number of params: 25523560
[2025-06-10 16:56:58 eval_vit_small_16_224] (utils.py 76): INFO ==============> Resuming form image_seqpe_ckpt/best_model.pth....................
…
[2025-06-10 16:59:35 eval_vit_small_16_224] (eval.py 309): INFO Test: [190/391]	Time 0.045 (0.779)	Loss 1.7230 (1.0287)	Acc@1 60.156 (78.849)	Acc@5 87.500 (94.151)	Mem 550MB
[2025-06-10 16:59:41 eval_vit_small_16_224] (eval.py 309): INFO Test: [200/391]	Time 1.505 (0.771)	Loss 1.1143 (1.0536)	Acc@1 75.781 (78.343)	Acc@5 92.969 (93.801)	Mem 550MB
[2025-06-10 16:59:47 eval_vit_small_16_224] (eval.py 309): INFO Test: [210/391]	Time 0.045 (0.765)	Loss 1.3912 (1.0671)	Acc@1 71.094 (78.055)	Acc@5 91.406 (93.672)	Mem 550MB
[2025-06-10 17:00:17 eval_vit_small_16_224] (eval.py 134): INFO Creating model:vit_s_16/vit_small_16_224
[2025-06-10 17:00:17 eval_vit_small_16_224] (eval.py 141): INFO VisionTransformer(
  (patch_embed): PatchEmbed(
    (proj): Conv2d(3, 384, kernel_size=(16, 16), stride=(16, 16))
    (norm): Identity()
  )
  (pos_drop): Dropout(p=0.0, inplace=False)
  (blocks): ModuleList(
    (0-11): 12 x Block(
      (norm1): LayerNorm((384,), eps=1e-06, elementwise_affine=True)
      (attn): Attention(
        (pe_qk): Linear(in_features=384, out_features=768, bias=True)
        (qkv): Linear(in_features=384, out_features=1152, bias=True)
        (attn_drop): Dropout(p=0.0, inplace=False)
        (proj): Linear(in_features=384, out_features=384, bias=True)
        (proj_drop): Dropout(p=0.0, inplace=False)
      )
      (drop_path): Identity()
      (norm2): LayerNorm((384,), eps=1e-06, elementwise_affine=True)
      (mlp): Mlp(
        (fc1): Linear(in_features=384, out_features=1536, bias=True)
        (act): GELU(approximate='none')
        (fc2): Linear(in_features=1536, out_features=384, bias=True)
        (drop): Dropout(p=0.0, inplace=False)
      )
    )
  )
  (norm): LayerNorm((384,), eps=1e-06, elementwise_affine=True)
  (pre_logits): Identity()
  (head): Linear(in_features=384, out_features=1000, bias=True)
)
[2025-06-10 17:00:17 eval_vit_small_16_224] (eval.py 145): INFO SequentialPE(
  (pos_of_seqpe_embed): Embedding(4, 384)
  (token_of_seqpe_embed): Embedding(10, 384)
  (transformers): ModuleList(
    (0-1): 2 x SequentialPeBlock(
      (attn): SequentialPeAttention(
        (c_attn): Conv1D()
        (c_proj): Conv1D()
        (attn_dropout): Dropout(p=0.0, inplace=False)
        (resid_dropout): Dropout(p=0.1, inplace=False)
      )
      (layernorm_1): LayerNorm((384,), eps=1e-05, elementwise_affine=True)
      (layernorm_2): LayerNorm((384,), eps=1e-05, elementwise_affine=True)
      (mlp): SequentialPeMLP(
        (c_fc): Conv1D()
        (c_proj): Conv1D()
        (act): NewGELUActivation()
        (dropout): Dropout(p=0.1, inplace=False)
      )
    )
  )
  (layernorm): LayerNorm((384,), eps=1e-05, elementwise_affine=True)
  (out_proj): Linear(in_features=384, out_features=384, bias=True)
)
[2025-06-10 17:00:17 eval_vit_small_16_224] (eval.py 151): INFO Successfully init DDP for model
[2025-06-10 17:00:17 eval_vit_small_16_224] (eval.py 158): INFO Successfully init DDP for pe model
[2025-06-10 17:00:17 eval_vit_small_16_224] (eval.py 166): INFO number of params: 25523560
[2025-06-10 17:00:17 eval_vit_small_16_224] (utils.py 76): INFO ==============> Resuming form image_seqpe_ckpt/best_model.pth....................
…
